…
Requirement already satisfied: certifi>=2017.4.17 in /home/users/nus/e1506251/myenv/lib/python3.11/site-packages (from requests>=2.26.0->tiktoken) (2025.1.31)

[notice] A new release of pip is available: 23.2.1 -> 25.0.1
[notice] To update, run: pip install --upgrade pip
Using the latest cached version of the dataset since imdb couldn't be found on the Hugging Face Hub
Found the latest cached dataset configuration 'plain_text' at /home/users/nus/e1506251/.cache/huggingface/datasets/imdb/plain_text/0.0.0/e6281661ce1c48d982bc483cf8a173c1bbeb5d31 (last modified on Wed Apr  9 01:46:31 2025).
25000
7500
17500
DebertaV2ForSequenceClassification(
  (deberta): DebertaV2Model(
    (embeddings): DebertaV2Embeddings(
      (word_embeddings): Embedding(128100, 768, padding_idx=0)
      (LayerNorm): LayerNorm((768,), eps=1e-07, elementwise_affine=True)
      (dropout): Dropout(p=0.1, inplace=False)
    )
    (encoder): DebertaV2Encoder(
      (layer): ModuleList(
        (0-11): 12 x DebertaV2Layer(
          (attention): DebertaV2Attention(
            (self): DisentangledSelfAttention(
              (query_proj): Linear(in_features=768, out_features=768, bias=True)
              (key_proj): Linear(in_features=768, out_features=768, bias=True)
              (value_proj): Linear(in_features=768, out_features=768, bias=True)
              (pos_dropout): Dropout(p=0.1, inplace=False)
              (dropout): Dropout(p=0.1, inplace=False)
            )
            (output): DebertaV2SelfOutput(
              (dense): Linear(in_features=768, out_features=768, bias=True)
              (LayerNorm): LayerNorm((768,), eps=1e-07, elementwise_affine=True)
              (dropout): Dropout(p=0.1, inplace=False)
            )
          )
          (intermediate): DebertaV2Intermediate(
            (dense): Linear(in_features=768, out_features=3072, bias=True)
            (intermediate_act_fn): GELUActivation()
          )
          (output): DebertaV2Output(
            (dense): Linear(in_features=3072, out_features=768, bias=True)
            (LayerNorm): LayerNorm((768,), eps=1e-07, elementwise_affine=True)
            (dropout): Dropout(p=0.1, inplace=False)
          )
        )
      )
      (rel_embeddings): Embedding(512, 768)
      (LayerNorm): LayerNorm((768,), eps=1e-07, elementwise_affine=True)
    )
  )
  (pooler): ContextPooler(
    (dense): Linear(in_features=768, out_features=768, bias=True)
    (dropout): Dropout(p=0, inplace=False)
  )
  (classifier): Linear(in_features=768, out_features=2, bias=True)
  (dropout): Dropout(p=0.1, inplace=False)
)
Map:   0%|          | 0/17500 [00:00<?, ? examples/s]Map:   6%|▌         | 1000/17500 [00:00<00:07, 2080.61 examples/s]Map:  11%|█▏        | 2000/17500 [00:00<00:04, 3116.44 examples/s]Map:  17%|█▋        | 3000/17500 [00:00<00:03, 3731.34 examples/s]Map:  23%|██▎       | 4000/17500 [00:01<00:03, 4076.97 
…
